Model: "sequential"
_________________________________________________________________
Layer (type)                 Output Shape              Param #   
=================================================================
conv2d (Conv2D)              (None, 30, 30, 32)        896       
_________________________________________________________________
max_pooling2d (MaxPooling2D) (None, 15, 15, 32)        0         
_________________________________________________________________
conv2d_1 (Conv2D)            (None, 13, 13, 64)        18496     
_________________________________________________________________
max_pooling2d_1 (MaxPooling2 (None, 6, 6, 64)          0         
_________________________________________________________________
conv2d_2 (Conv2D)            (None, 4, 4, 64)          36928     
_________________________________________________________________
flatten (Flatten)            (None, 1024)              0         
_________________________________________________________________
dense (Dense)                (None, 64)                65600     
_________________________________________________________________
dense_1 (Dense)              (None, 43)                2795      
=================================================================
Total params: 124,715
Trainable params: 124,715
Non-trainable params: 0
_________________________________________________________________
Class: 00 | Correct:   57.0 | Wrong:  6.0 | percent: 89.47
Class: 01 | Correct:  654.0 | Wrong: 12.0 | percent: 98.17
Class: 02 | Correct:  668.0 | Wrong:  7.0 | percent: 98.95
Class: 03 | Correct:  417.0 | Wrong:  6.0 | percent: 98.56
…
