Model: "sequential"
_________________________________________________________________
Layer (type)                 Output Shape              Param #   
=================================================================
conv2d (Conv2D)              (None, 30, 30, 32)        896       
_________________________________________________________________
max_pooling2d (MaxPooling2D) (None, 15, 15, 32)        0         
_________________________________________________________________
conv2d_1 (Conv2D)            (None, 13, 13, 64)        18496     
_________________________________________________________________
max_pooling2d_1 (MaxPooling2 (None, 6, 6, 64)          0         
_________________________________________________________________
conv2d_2 (Conv2D)            (None, 4, 4, 64)          36928     
=================================================================
Total params: 56,320
Trainable params: 56,320
Non-trainable params: 0
_________________________________________________________________

Epoch 1/10  1/858 [..............................] - ETA: 0s - loss: 3.7550 - sparse_categorical_accuracy: 0.0000e+00
…
Epoch 10/10  1/858 [..............................] - ETA: 0s - loss: 0.0138 - sparse_categorical_accuracy: 1.0000
  858/858 [==============================] - 7s 8ms/step - loss: 0.0282 - sparse_categorical_accuracy: 0.9914 - val_loss: 0.0777 - val_sparse_categorical_accuracy: 0.9839
Model: "sequential"
_________________________________________________________________
Layer (type)                 Output Shape              Param #   
=================================================================
conv2d (Conv2D)              (None, 30, 30, 32)        896       
_________________________________________________________________
max_pooling2d (MaxPooling2D) (None, 15, 15, 32)        0         
_________________________________________________________________
conv2d_1 (Conv2D)            (None, 13, 13, 64)        18496     
_________________________________________________________________
max_pooling2d_1 (MaxPooling2 (None, 6, 6, 64)          0         
_________________________________________________________________
conv2d_2 (Conv2D)            (None, 4, 4, 64)          36928     
_________________________________________________________________
flatten (Flatten)            (None, 1024)              0         
_________________________________________________________________
dense (Dense)                (None, 64)                65600     
_________________________________________________________________
dense_1 (Dense)              (None, 43)                2795      
=================================================================
Total params: 124,715
Trainable params: 124,715
Non-trainable params: 0
_________________________________________________________________
Class: 00 | Correct:   59.0 | Wrong:  4.0 | percent: 93.22
Class: 01 | Correct:  650.0 | Wrong: 16.0 | percent: 97.54
Class: 02 | Correct:  657.0 | Wrong: 18.0 | percent: 97.26
Class: 03 | Correct:  408.0 | Wrong: 15.0 | percent: 96.32
…
